…
News & Politics	['Comedy']	wordembavg_2linear	test	0.693619827	0.547821969	nan	0	models/bigrams/politics_comedy/model_0_wordembavg_2linear.pt	"{'embedding': Embedding(25002, 100, padding_idx=10686), 'linear1': Linear(in_features=100, out_features=50, bias=True), 'linear2': Linear(in_features=50, out_features=1, bias=True), 'relu': ReLU()}"	category_id	"['title', 'tags', 'description', 'caption']"	"[0.4, 0.4, 0.2]"	2	25000	64	False
News & Politics	['Comedy']	cnn	0	1.673814654	0.418452382	0.418250769	0.993333328	models/bigrams/politics_comedy/model_1_cnn.pt	"{'embedding': Embedding(25002, 100, padding_idx=10686), 'convs': ModuleList(
  (0): Conv2d(1, 200, kernel_size=(3, 100), stride=(1, 1))
  (1): Conv2d(1, 200, kernel_size=(4, 100), stride=(1, 1))
  (2): Conv2d(1, 200, kernel_size=(5, 100), stride=(1, 1))
), 'fc': Linear(in_features=600, out_features=1, bias=True), 'dropout': Dropout(p=0.5, inplace=False)}"	category_id	"['title', 'tags', 'description', 'caption']"	"[0.4, 0.4, 0.2]"	2	25000	64	False
News & Politics	['Comedy']	cnn	1	0.91909163	0.528273809	0.319527912	0.229074074	models/bigrams/politics_comedy/model_1_cnn.pt	"{'embedding': Embedding(25002, 100, padding_idx=10686), 'convs': ModuleList(
  (0): Conv2d(1, 200, kernel_size=(3, 100), stride=(1, 1))
  (1): Conv2d(1, 200, kernel_size=(4, 100), stride=(1, 1))
  (2): Conv2d(1, 200, kernel_size=(5, 100), stride=(1, 1))
), 'fc': Linear(in_features=600, out_features=1, bias=True), 'dropout': Dropout(p=0.5, inplace=False)}"	category_id	"['title', 'tags', 'description', 'caption']"	"[0.4, 0.4, 0.2]"	2	25000	64	False
News & Politics	['Comedy']	cnn	2	2.360248792	0.595833337	nan	0.035294119	models/bigrams/politics_comedy/model_1_cnn.pt	"{'embedding': Embedding(25002, 100, padding_idx=10686), 'convs': ModuleList(
  (0): Conv2d(1, 200, kernel_size=(3, 100), stride=(1, 1))
  (1): Conv2d(1, 200, kernel_size=(4, 100), stride=(1, 1))
  (2): Conv2d(1, 200, kernel_size=(5, 100), stride=(1, 1))
), 'fc': Linear(in_features=600, out_features=1, bias=True), 'dropout': Dropout(p=0.5, inplace=False)}"	category_id	"['title', 'tags', 'description', 'caption']"	"[0.4, 0.4, 0.2]"	2	25000	64	False
News & Politics	['Comedy']	cnn	3	2.114364743	0.415327382	0.415664685	0.980827892	models/bigrams/politics_comedy/model_1_cnn.pt	"{'embedding': Embedding(25002, 100, padding_idx=10686), 'convs': ModuleList(
  (0): Conv2d(1, 200, kernel_size=(3, 100), stride=(1, 1))
  (1): Conv2d(1, 200, kernel_size=(4, 100), stride=(1, 1))
  (2): Conv2d(1, 200, kernel_size=(5, 100), stride=(1, 1))
), 'fc': Linear(in_features=600, out_features=1, bias=True), 'dropout': Dropout(p=0.5, inplace=False)}"	category_id	"['title', 'tags', 'description', 'caption']"	"[0.4, 0.4, 0.2]"	2	25000	64	False
News & Politics	['Comedy']	cnn	4	2.352506864	0.589583337	nan	0.035294119	models/bigrams/politics_comedy/model_1_cnn.pt	"{'embedding': Embedding(25002, 100, padding_idx=10686), 'convs': ModuleList(
  (0): Conv2d(1, 200, kernel_size=(3, 100), stride=(1, 1))
  (1): Conv2d(1, 200, kernel_size=(4, 100), stride=(1, 1))
  (2): Conv2d(1, 200, kernel_size=(5, 100), stride=(1, 1))
), 'fc': Linear(in_features=600, out_features=1, bias=True), 'dropout': Dropout(p=0.5, inplace=False)}"	category_id	"['title', 'tags', 'description', 'caption']"	"[0.4, 0.4, 0.2]"	2	25000	64	False
News & Politics	['Comedy']	cnn	test	2.146264871	0.547821969	nan	0.012345679	models/bigrams/politics_comedy/model_1_cnn.pt	"{'embedding': Embedding(25002, 100, padding_idx=10686), 'convs': ModuleList(
  (0): Conv2d(1, 200, kernel_size=(3, 100), stride=(1, 1))
  (1): Conv2d(1, 200, kernel_size=(4, 100), stride=(1, 1))
  (2): Conv2d(1, 200, kernel_size=(5, 100), stride=(1, 1))
), 'fc': Linear(in_features=600, out_features=1, bias=True), 'dropout': Dropout(p=0.5, inplace=False)}"	category_id	"['title', 'tags', 'description', 'caption']"	"[0.4, 0.4, 0.2]"	2	25000	64	False
News & Politics	['Comedy']	cnn	0	0.881149936	0.459523809	0.400288904	0.596557742	models/bigrams/politics_comedy/model_2_cnn.pt	"{'embedding': Embedding(25002, 100, padding_idx=13762), 'convs': ModuleList(
  (0): Conv2d(1, 100, kernel_size=(3, 100), stride=(1, 1))
  (1): Conv2d(1, 100, kernel_size=(4, 100), stride=(1, 1))
  (2): Conv2d(1, 100, kernel_size=(5, 100), stride=(1, 1))
), 'fc': Linear(in_features=300, out_features=1, bias=True), 'dropout': Dropout(p=0.5, inplace=False)}"	category_id	"['title', 'tags', 'description', 'caption']"	"[0.4, 0.4, 0.2]"	2	25000	64	False
News & Politics	['Comedy']	cnn	1	0.966913164	0.454613096	0.357776108	0.534640522	models/bigrams/politics_comedy/model_2_cnn.pt	"{'embedding': Embedding(25002, 100, padding_idx=13762), 'convs': ModuleList(
  (0): Conv2d(1, 100, kernel_size=(3, 100), stride=(1, 1))
  (1): Conv2d(1, 100, kernel_size=(4, 100), stride=(1, 1))
  (2): Conv2d(1, 100, kernel_size=(5, 100), stride=(1, 1))
), 'fc': Linear(in_features=300, out_features=1, bias=True), 'dropout': Dropout(p=0.5, inplace=False)}"	category_id	"['title', 'tags', 'description', 'caption']"	"[0.4, 0.4, 0.2]"	2	25000	64	False
News & Politics	['Comedy']	cnn	2	1.507106781	0.576934528	nan	0.035294119	models/bigrams/politics_comedy/model_2_cnn.pt	"{'embedding': Embedding(25002, 100, padding_idx=13762), 'convs': ModuleList(
  (0): Conv2d(1, 100, kernel_size=(3, 100), stride=(1, 1))
  (1): Conv2d(1, 100, kernel_size=(4, 100), stride=(1, 1))
  (2): Conv2d(1, 100, kernel_size=(5, 100), stride=(1, 1))
), 'fc': Linear(in_features=300, out_features=1, bias=True), 'dropout': Dropout(p=0.5, inplace=False)}"	category_id	"['title', 'tags', 'description', 'caption']"	"[0.4, 0.4, 0.2]"	2	25000	64	False
News & Politics	['Comedy']	cnn	3	1.32052635	0.410565478	0.408565301	0.910359478	models/bigrams/politics_comedy/model_2_cnn.pt	"{'embedding': Embedding(25002, 100, padding_idx=13762), 'convs': ModuleList(
  (0): Conv2d(1, 100, kernel_size=(3, 100), stride=(1, 1))
  (1): Conv2d(1, 100, kernel_size=(4, 100), stride=(1, 1))
  (2): Conv2d(1, 100, kernel_size=(5, 100), stride=(1, 1))
), 'fc': Linear(in_features=300, out_features=1, bias=True), 'dropout': Dropout(p=0.5, inplace=False)}"	category_id	"['title', 'tags', 'description', 'caption']"	"[0.4, 0.4, 0.2]"	2	25000	64	False
News & Politics	['Comedy']	cnn	4	1.564545834	0.573809528	nan	0.054466231	models/bigrams/politics_comedy/model_2_cnn.pt	"{'embedding': Embedding(25002, 100, padding_idx=13762), 'convs': ModuleList(
  (0): Conv2d(1, 100, kernel_size=(3, 100), stride=(1, 1))
  (1): Conv2d(1, 100, kernel_size=(4, 100), stride=(1, 1))
  (2): Conv2d(1, 100, kernel_size=(5, 100), stride=(1, 1))
), 'fc': Linear(in_features=300, out_features=1, bias=True), 'dropout': Dropout(p=0.5, inplace=False)}"	category_id	"['title', 'tags', 'description', 'caption']"	"[0.4, 0.4, 0.2]"	2	25000	64	False
News & Politics	['Comedy']	cnn	test	1.54122293	0.537878791	0.50000001	0.068289737	models/bigrams/politics_comedy/model_2_cnn.pt	"{'embedding': Embedding(25002, 100, padding_idx=13762), 'convs': ModuleList(
  (0): Conv2d(1, 100, kernel_size=(3, 100), stride=(1, 1))
  (1): Conv2d(1, 100, kernel_size=(4, 100), stride=(1, 1))
  (2): Conv2d(1, 100, kernel_size=(5, 100), stride=(1, 1))
), 'fc': Linear(in_features=300, out_features=1, bias=True), 'dropout': Dropout(p=0.5, inplace=False)}"	category_id	"['title', 'tags', 'description', 'caption']"	"[0.4, 0.4, 0.2]"	2	25000	64	False
News & Politics	['Education']	wordembavg_2linear	0	0.758967742	0.501562499	0.501562499	1	models/bigrams/politics_education/model_0_wordembavg_2linear.pt	"{'embedding': Embedding(25002, 100, padding_idx=10689), 'linear1': Linear(in_features=100, out_features=50, bias=True), 'linear2': Linear(in_features=50, out_features=1, bias=True), 'relu': ReLU()}"	category_id	"['title', 'tags', 'description', 'caption']"	"[0.4, 0.4, 0.2]"	2	25000	64	False
…
