…
News & Politics	[]	model_0_wordembavg_2linear	test	0.9659349665045738	0.8743607968091964	nan	0.02222222276031971	models_wo_captions/unigrams/politics/model_0_wordembavg_2linear.pt	{'embedding': Embedding(25002, 100, padding_idx=122), 'linear1': Linear(in_features=100, out_features=50, bias=True), 'linear2': Linear(in_features=50, out_features=1, bias=True), 'relu': ReLU()}	category_id	['title', 'tags', 'description']	[0.4, 0.4, 0.2]	1	25000	64	False
label_target	label_others	model	epoch	loss	accuracy	precision	recall	model_path	model_init	col_labels	col_corpus	splits	ngram_size	vocab_size	batch_size	cbow
News & Politics	[]	model_1_cnn	0	0.47964463584357875	0.9203835234045983	nan	nan	models_wo_captions/unigrams/politics/model_1_cnn.pt	{'embedding': Embedding(25002, 100, padding_idx=122), 'convs': ModuleList(   (0): Conv2d(1, 200, kernel_size=(3, 100), stride=(1, 1))   (1): Conv2d(1, 200, kernel_size=(4, 100), stride=(1, 1))   (2): Conv2d(1, 200, kernel_size=(5, 100), stride=(1, 1)) ), 'fc': Linear(in_features=600, out_features=1, bias=True), 'dropout': Dropout(p=0.5, inplace=False)}	category_id	['title', 'tags', 'description']	[0.4, 0.4, 0.2]	1	25000	64	False
News & Politics	[]	model_1_cnn	1	0.4480809230357409	0.9078835234045982	nan	nan	models_wo_captions/unigrams/politics/model_1_cnn.pt	{'embedding': Embedding(25002, 100, padding_idx=122), 'convs': ModuleList(   (0): Conv2d(1, 200, kernel_size=(3, 100), stride=(1, 1))   (1): Conv2d(1, 200, kernel_size=(4, 100), stride=(1, 1))   (2): Conv2d(1, 200, kernel_size=(5, 100), stride=(1, 1)) ), 'fc': Linear(in_features=600, out_features=1, bias=True), 'dropout': Dropout(p=0.5, inplace=False)}	category_id	['title', 'tags', 'description']	[0.4, 0.4, 0.2]	1	25000	64	False
News & Politics	[]	model_1_cnn	2	1.335856128063341	0.9199928984045982	nan	nan	models_wo_captions/unigrams/politics/model_1_cnn.pt	{'embedding': Embedding(25002, 100, padding_idx=122), 'convs': ModuleList(   (0): Conv2d(1, 200, kernel_size=(3, 100), stride=(1, 1))   (1): Conv2d(1, 200, kernel_size=(4, 100), stride=(1, 1))   (2): Conv2d(1, 200, kernel_size=(5, 100), stride=(1, 1)) ), 'fc': Linear(in_features=600, out_features=1, bias=True), 'dropout': Dropout(p=0.5, inplace=False)}	category_id	['title', 'tags', 'description']	[0.4, 0.4, 0.2]	1	25000	64	False
News & Politics	[]	model_1_cnn	3	1.8061752012463899	0.9170809656381607	nan	nan	models_wo_captions/unigrams/politics/model_1_cnn.pt	{'embedding': Embedding(25002, 100, padding_idx=122), 'convs': ModuleList(   (0): Conv2d(1, 200, kernel_size=(3, 100), stride=(1, 1))   (1): Conv2d(1, 200, kernel_size=(4, 100), stride=(1, 1))   (2): Conv2d(1, 200, kernel_size=(5, 100), stride=(1, 1)) ), 'fc': Linear(in_features=600, out_features=1, bias=True), 'dropout': Dropout(p=0.5, inplace=False)}	category_id	['title', 'tags', 'description']	[0.4, 0.4, 0.2]	1	25000	64	False
News & Politics	[]	model_1_cnn	4	2.3210775193252458	0.9067471593618393	nan	nan	models_wo_captions/unigrams/politics/model_1_cnn.pt	{'embedding': Embedding(25002, 100, padding_idx=122), 'convs': ModuleList(   (0): Conv2d(1, 200, kernel_size=(3, 100), stride=(1, 1))   (1): Conv2d(1, 200, kernel_size=(4, 100), stride=(1, 1))   (2): Conv2d(1, 200, kernel_size=(5, 100), stride=(1, 1)) ), 'fc': Linear(in_features=600, out_features=1, bias=True), 'dropout': Dropout(p=0.5, inplace=False)}	category_id	['title', 'tags', 'description']	[0.4, 0.4, 0.2]	1	25000	64	False
News & Politics	[]	model_1_cnn	test	2.7419599860906603	0.9048295468091965	nan	0.0	models_wo_captions/unigrams/politics/model_1_cnn.pt	{'embedding': Embedding(25002, 100, padding_idx=122), 'convs': ModuleList(   (0): Conv2d(1, 200, kernel_size=(3, 100), stride=(1, 1))   (1): Conv2d(1, 200, kernel_size=(4, 100), stride=(1, 1))   (2): Conv2d(1, 200, kernel_size=(5, 100), stride=(1, 1)) ), 'fc': Linear(in_features=600, out_features=1, bias=True), 'dropout': Dropout(p=0.5, inplace=False)}	category_id	['title', 'tags', 'description']	[0.4, 0.4, 0.2]	1	25000	64	False
label_target	label_others	model	epoch	loss	accuracy	precision	recall	model_path	model_init	col_labels	col_corpus	splits	ngram_size	vocab_size	batch_size	cbow
News & Politics	[]	model_2_cnn	0	0.43321124128997324	0.9203835234045983	nan	nan	models_wo_captions/unigrams/politics/model_2_cnn.pt	{'embedding': Embedding(25002, 100, padding_idx=122), 'convs': ModuleList(   (0): Conv2d(1, 100, kernel_size=(3, 100), stride=(1, 1))   (1): Conv2d(1, 100, kernel_size=(4, 100), stride=(1, 1))   (2): Conv2d(1, 100, kernel_size=(5, 100), stride=(1, 1)) ), 'fc': Linear(in_features=300, out_features=1, bias=True), 'dropout': Dropout(p=0.5, inplace=False)}	category_id	['title', 'tags', 'description']	[0.4, 0.4, 0.2]	1	25000	64	False
News & Politics	[]	model_2_cnn	1	0.3832762764999643	0.9203835234045983	nan	nan	models_wo_captions/unigrams/politics/model_2_cnn.pt	{'embedding': Embedding(25002, 100, padding_idx=122), 'convs': ModuleList(   (0): Conv2d(1, 100, kernel_size=(3, 100), stride=(1, 1))   (1): Conv2d(1, 100, kernel_size=(4, 100), stride=(1, 1))   (2): Conv2d(1, 100, kernel_size=(5, 100), stride=(1, 1)) ), 'fc': Linear(in_features=300, out_features=1, bias=True), 'dropout': Dropout(p=0.5, inplace=False)}	category_id	['title', 'tags', 'description']	[0.4, 0.4, 0.2]	1	25000	64	False
News & Politics	[]	model_2_cnn	2	0.643433613187517	0.9203835234045983	nan	nan	models_wo_captions/unigrams/politics/model_2_cnn.pt	{'embedding': Embedding(25002, 100, padding_idx=122), 'convs': ModuleList(   (0): Conv2d(1, 100, kernel_size=(3, 100), stride=(1, 1))   (1): Conv2d(1, 100, kernel_size=(4, 100), stride=(1, 1))   (2): Conv2d(1, 100, kernel_size=(5, 100), stride=(1, 1)) ), 'fc': Linear(in_features=300, out_features=1, bias=True), 'dropout': Dropout(p=0.5, inplace=False)}	category_id	['title', 'tags', 'description']	[0.4, 0.4, 0.2]	1	25000	64	False
News & Politics	[]	model_2_cnn	3	0.8202326371334493	0.9003196015954018	nan	nan	models_wo_captions/unigrams/politics/model_2_cnn.pt	{'embedding': Embedding(25002, 100, padding_idx=122), 'convs': ModuleList(   (0): Conv2d(1, 100, kernel_size=(3, 100), stride=(1, 1))   (1): Conv2d(1, 100, kernel_size=(4, 100), stride=(1, 1))   (2): Conv2d(1, 100, kernel_size=(5, 100), stride=(1, 1)) ), 'fc': Linear(in_features=300, out_features=1, bias=True), 'dropout': Dropout(p=0.5, inplace=False)}	category_id	['title', 'tags', 'description']	[0.4, 0.4, 0.2]	1	25000	64	False
News & Politics	[]	model_2_cnn	4	1.4771596521130932	0.9192116484045982	nan	nan	models_wo_captions/unigrams/politics/model_2_cnn.pt	{'embedding': Embedding(25002, 100, padding_idx=122), 'convs': ModuleList(   (0): Conv2d(1, 100, kernel_size=(3, 100), stride=(1, 1))   (1): Conv2d(1, 100, kernel_size=(4, 100), stride=(1, 1))   (2): Conv2d(1, 100, kernel_size=(5, 100), stride=(1, 1)) ), 'fc': Linear(in_features=300, out_features=1, bias=True), 'dropout': Dropout(p=0.5, inplace=False)}	category_id	['title', 'tags', 'description']	[0.4, 0.4, 0.2]	1	25000	64	False
News & Politics	[]	model_2_cnn	test	1.580963534116745	0.9143323868513107	nan	0.0	models_wo_captions/unigrams/politics/model_2_cnn.pt	{'embedding': Embedding(25002, 100, padding_idx=122), 'convs': ModuleList(   (0): Conv2d(1, 100, kernel_size=(3, 100), stride=(1, 1))   (1): Conv2d(1, 100, kernel_size=(4, 100), stride=(1, 1))   (2): Conv2d(1, 100, kernel_size=(5, 100), stride=(1, 1)) ), 'fc': Linear(in_features=300, out_features=1, bias=True), 'dropout': Dropout(p=0.5, inplace=False)}	category_id	['title', 'tags', 'description']	[0.4, 0.4, 0.2]	1	25000	64	False
label_target	label_others	model	epoch	loss	accuracy	precision	recall	model_path	model_init	col_labels	col_corpus	splits	ngram_size	vocab_size	batch_size	cbow
News & Politic
…
